…
[INFO:swift] response_prefix: None
[INFO:swift] agent_template: hermes
[INFO:swift] norm_bbox: norm1000
[INFO:swift] Setting ROOT_IMAGE_DIR: None. You can adjust this hyperparameter through the environment variable: `ROOT_IMAGE_DIR`.
[INFO:swift] Setting QWENVL_BBOX_FORMAT: legacy. You can adjust this hyperparameter through the environment variable: `QWENVL_BBOX_FORMAT`.
[INFO:swift] model: PeftModelForCausalLM(
  (base_model): LoraModel(
    (model): Qwen3VLForConditionalGeneration(
      (model): Qwen3VLModel(
        (visual): Qwen3VLVisionModel(
          (patch_embed): Qwen3VLVisionPatchEmbed(
            (proj): Conv3d(3, 1152, kernel_size=(2, 16, 16), stride=(2, 16, 16))
          )
          (pos_embed): Embedding(2304, 1152)
          (rotary_pos_emb): Qwen3VLVisionRotaryEmbedding()
          (blocks): ModuleList(
            (0-26): 27 x Qwen3VLVisionBlock(
              (norm1): LayerNorm((1152,), eps=1e-06, elementwise_affine=True)
              (norm2): LayerNorm((1152,), eps=1e-06, elementwise_affine=True)
              (attn): Qwen3VLVisionAttention(
                (qkv): Linear(in_features=1152, out_features=3456, bias=True)
                (proj): Linear(in_features=1152, out_features=1152, bias=True)
              )
              (mlp): Qwen3VLVisionMLP(
                (linear_fc1): Linear(in_features=1152, out_features=4304, bias=True)
                (linear_fc2): Linear(in_features=4304, out_features=1152, bias=True)
                (act_fn): GELUTanh()
              )
            )
          )
          (merger): Qwen3VLVisionPatchMerger(
            (norm): LayerNorm((1152,), eps=1e-06, elementwise_affine=True)
            (linear_fc1): Linear(in_features=4608, out_features=4608, bias=True)
            (act_fn): GELU(approximate='none')
            (linear_fc2): Linear(in_features=4608, out_features=4096, bias=True)
          )
          (deepstack_merger_list): ModuleList(
            (0-2): 3 x Qwen3VLVisionPatchMerger(
              (norm): LayerNorm((4608,), eps=1e-06, elementwise_affine=True)
              (linear_fc1): Linear(in_features=4608, out_features=4608, bias=True)
              (act_fn): GELU(approximate='none')
              (linear_fc2): Linear(in_features=4608, out_features=4096, bias=True)
            )
          )
        )
        (language_model): Qwen3VLTextModel(
          (embed_tokens): Embedding(151936, 4096)
          (layers): ModuleList(
            (0-35): 36 x Qwen3VLTextDecoderLayer(
              (self_attn): Qwen3VLTextAttention(
                (q_proj): lora.Linear(
                  (base_layer): Linear(in_features=4096, out_features=4096, bias=False)
                  (lora_dropout): ModuleDict(
                    (default): Dropout(p=0.05, inplace=False)
                  )
                  (lora_A): ModuleDict(
                    (default): Linear(in_features=4096, out_features=16, bias=False)
                  )
                  (lora_B): ModuleDict(
                    (default): Linear(in_features=16, out_features=4096, bias=False)
                  )
                  (lora_embedding_A): ParameterDict()
                  (lora_embedding_B): ParameterDict()
                  (lora_magnitude_vector): ModuleDict()
                )
                (k_proj): lora.Linear(
                  (base_layer): Linear(in_features=4096, out_features=1024, bias=False)
                  (lora_dropout): ModuleDict(
                    (default): Dropout(p=0.05, inplace=False)
                  )
                  (lora_A): ModuleDict(
                    (default): Linear(in_features=4096, out_features=16, bias=False)
                  )
                  (lora_B): ModuleDict(
                    (default): Linear(in_features=16, out_features=1024, bias=False)
                  )
                  (lora_embedding_A): ParameterDict()
                  (lora_embedding_B): ParameterDict()
                  (lora_magnitude_vector): ModuleDict()
                )
                (v_proj): lora.Linear(
                  (base_layer): Linear(in_features=4096, out_features=1024, bias=False)
                  (lora_dropout): ModuleDict(
                    (default): Dropout(p=0.05, inplace=False)
                  )
                  (lora_A): ModuleDict(
                    (default): Linear(in_features=4096, out_features=16, bias=False)
                  )
                  (lora_B): ModuleDict(
                    (default): Linear(in_features=16, out_features=1024, bias=False)
                  )
                  (lora_embedding_A): ParameterDict()
                  (lora_embedding_B): ParameterDict()
                  (lora_magnitude_vector): ModuleDict()
                )
                (o_proj): lora.Linear(
                  (base_layer): Linear(in_features=4096, out_features=4096, bias=False)
                  (lora_dropout): ModuleDict(
                    (default): Dropout(p=0.05, inplace=False)
                  )
                  (lora_A): ModuleDict(
                    (default): Linear(in_features=4096, out_features=16, bias=False)
                  )
                  (lora_B): ModuleDict(
                    (default): Linear(in_features=16, out_features=4096, bias=False)
                  )
                  (lora_embedding_A): ParameterDict()
                  (lora_embedding_B): ParameterDict()
                  (lora_magnitude_vector): ModuleDict()
                )
                (q_norm): Qwen3VLTextRMSNorm((128,), eps=1e-06)
                (k_norm): Qwen3VLTextRMSNorm((128,), eps=1e-06)
              )
              (mlp): Qwen3VLTextMLP(
                (gate_proj): lora.Linear(
                  (base_layer): Linear(in_features=4096, out_features=12288, bias=False)
                  (lora_dropout): ModuleDict(
                    (default): Dropout(p=0.05, inplace=False)
                  )
                  (lora_A): ModuleDict(
                    (default): Linear(in_features=4096, out_features=16, bias=False)
                  )
                  (lora_B): ModuleDict(
                    (default): Linear(in_features=16, out_features=12288, bias=False)
                  )
                  (lora_embedding_A): ParameterDict()
                  (lora_embedding_B): ParameterDict()
                  (lora_magnitude_vector): ModuleDict()
                )
                (up_proj): lora.Linear(
                  (base_layer): Linear(in_features=4096, out_features=12288, bias=False)
                  (lora_dropout): ModuleDict(
                    (default): Dropout(p=0.05, inplace=False)
                  )
                  (lora_A): ModuleDict(
                    (default): Linear(in_features=4096, out_features=16, bias=False)
                  )
                  (lora_B): ModuleDict(
                    (default): Linear(in_features=16, out_features=12288, bias=False)
                  )
                  (lora_embedding_A): ParameterDict()
                  (lora_embedding_B): ParameterDict()
                  (lora_magnitude_vector): ModuleDict()
                )
                (down_proj): lora.Linear(
                  (base_layer): Linear(in_features=12288, out_features=4096, bias=False)
                  (lora_dropout): ModuleDict(
                    (default): Dropout(p=0.05, inplace=False)
                  )
                  (lora_A): ModuleDict(
                    (default): Linear(in_features=12288, out_features=16, bias=False)
                  )
                  (lora_B): ModuleDict(
                    (default): Linear(in_features=16, out_features=4096, bias=False)
                  )
                  (lora_embedding_A): ParameterDict()
                  (lora_embedding_B): ParameterDict()
                  (lora_magnitude_vector): ModuleDict()
                )
                (act_fn): SiLUActivation()
              )
              (input_layernorm): Qwen3VLTextRMSNorm((4096,), eps=1e-06)
              (post_attention_layernorm): Qwen3VLTextRMSNorm((4096,), eps=1e-06)
            )
          )
          (norm): Qwen3VLTextRMSNorm((4096,), eps=1e-06)
          (rotary_emb): Qwen3VLTextRotaryEmbedding()
        )
      )
      (lm_head): Linear(in_features=4096, out_features=151936, bias=False)
    )
  )
)
[INFO:swift] Start time of running main: 2026-05-26 21:17:18.553508
[INFO:swift] swift.__version__: 4.3.0.dev0
[INFO:swift] request_config: RequestConfig(max_tokens=512, temperature=None, top_k=None, top_p=None, repetition_penalty=None, num_beams=1, stop=[], seed=None, stream=False, logprobs=False, top_logprobs=None, n=1, best_of=None, presence_penalty=0.0, frequency_penalty=0.0, length_penalty=1.0, return_details=False, structured_outputs_regex=None)
…
